fangzhen/ifr-ros2-rm/rm_armor_finder/model/model-test/model_lg.onnx (onnx, 283899 bytes, 6 tensors)

layers.1.weight f4 [120, 500]
000000 f9 f1 00 bd 43 33 bb 3c 44 c0 90 3b 0d f8 a5 bc
       -0.031480763 0.022851592 0.004417451 -0.020259881
000010 0e cf 32 bd b3 bd 2d 3a 2c 08 de bc 9e c4 64 bd
       -0.043654494 0.00066276937 -0.027103506 -0.05585157
000020 28 87 5b bb 7f cc 48 bc 7d 5e 1c 3d 47 78 9d b9
       -0.0033497307 -0.012255787 0.03817605 -0.00030034987
000030 af 74 c0 bc 4e 91 42 ba 6c 67 17 bd 3c db 2d ba
       -0.02349314 -0.0007422165 -0.036963865 -0.0006632095
000040 2f b5 0a bd df 60 cc bc 8f 36 8b 3c dd da 13 bd
       -0.033864196 -0.024948535 0.016993789 -0.036097396
000050 41 5d 97 3b 15 bd 2a 3d 0d 97 3f 3c 01 70 e0 3c
       0.004619271 0.04168423 0.011693728 0.027397158
000060 d6 09 62 3c 0a 32 cf bc 61 18 e3 bc 2a 9b 9f 3b
       0.01379629 -0.025292415 -0.027721586 0.004870792
000070 73 08 3d bd ba 82 94 3a 24 60 49 bc 4d 91 f1 3c
       -0.046150636 0.0011330463 -0.012290988 0.02948823
000080 45 b4 1c 3d da e6 90 bb 52 68 fc bc d8 14 2a 3c
       0.038257856 -0.004422051 -0.030811463 0.010380946
000090 87 bc bc 3c fe 85 e6 bc 22 87 f5 3c 76 00 08 bd
       0.023039116 -0.028140064 0.029971663 -0.033203565
0000a0 2e bc ed 3c ff 52 8b 3c 35 6e 83 3c ef b7 41 3c
       0.029020395 0.017007349 0.016043762 0.011823638
0000b0 33 16 01 bd 0f 6a f7 3b 19 eb 1e bc 5d 79 d8 3c
       -0.03151531 0.007550485 -0.009699606 0.026425058
0000c0 ed 2a b6 3b 90 1c 2d bd f2 93 24 bd 76 99 fe bc
       0.0055593164 -0.042263567 -0.040180154 -0.031079035
0000d0 f9 61 a8 bc 77 2c 90 bb e2 49 25 3d e6 c4 bf bc
       -0.02055453 -0.004399832 0.040353663 -0.023409318
0000e0 91 0f 1c bd 5b b1 38 bd 73 34 af bc 9e cf 30 bd
       -0.038100783 -0.045091014 -0.021387314 -0.04316675
0000f0 11 72 06 3d 58 b8 3e 3d fd 98 1c bd c2 9c ec bc
       0.032823626 0.046562523 -0.03823184 -0.028883342
000100 d8 a4 14 bd 50 9a 08 bc a3 f6 a6 bc a2 b1 1a bd
       -0.03629002 -0.008337572 -0.020381277 -0.03776706
000110 ad 10 15 bd 8b b7 9c bc 5c 6a ab bc 88 59 15 bc
       -0.036392856 -0.019130489 -0.02092474 -0.009115584
000120 94 a0 10 bd a9 44 57 bb 99 40 c9 bc 1c 20 8e 3c
       -0.03530939 -0.003284732 -0.024566935 0.017349295
000130 5b dc 88 3c 94 40 00 3d 23 87 61 bc eb ee 86 3c
       0.016706636 0.031311586 -0.013765129 0.016471347
000140 0d 32 a4 bc 2e 31 5e 3d 70 50 c2 3a 2b bb 2d bd
       -0.020043397 0.05424612 0.0014824998 -0.042414825
000150 55 42 00 bc 15 ee 1a bd f8 41 e0 3c 71 30 06 bd
       -0.007828315 -0.03782471 0.027375206 -0.03276104
000160 aa 8c bc bc d9 aa 62 3d de 65 96 bb 91 2a f9 bb
       -0.023016293 0.055338714 -0.0045897802 -0.0076039513
000170 74 dd 48 bc a4 73 8e bb a4 34 d0 bc 70 26 18 bc
       -0.01225983 -0.0043472815 -0.025415726 -0.009286508
000180 c1 b1 18 bc 80 ce 89 bc 9c fc 83 3c 13 bc 4b 3c
       -0.009319724 -0.0168221 0.016111664 0.012434977
000190 48 e2 5a 3d ed 56 3b bc a3 08 4e bb 95 97 80 3b
       0.053438455 -0.011434299 -0.0031438253 0.00392432
0001a0 c9 71 a4 3c 8d 86 11 bd b9 81 a8 3c 92 ef 9c bc
       0.020073788 -0.03552871 0.02056967 -0.019157205
0001b0 60 e3 0a 3c b3 8a 7b 3d 28 37 b8 3c 17 cf 03 3d
       0.008477062 0.06141157 0.022487238 0.03217992
0001c0 af ec d3 3b bb 7f e1 3c cb ef 0a 3d 42 b7 55 3c
       0.006467424 0.027526727 0.03392009 0.01304418
0001d0 c3 08 1e 3d 41 f3 37 bd 36 4e 2e bc 5e 83 9c bc
       0.038582575 -0.04490972 -0.010638764 -0.01910561
0001e0 a6 90 5b 3d fa a3 08 bd f3 34 12 3c 4f 7e cd 3c
       0.053604744 -0.033359505 0.008923757 0.025084643
0001f0 d6 c3 5e 3d bb 5f da bc 71 8e 34 3d 8c 5e f4 3c
       0.054385982 -0.026656976 0.044081155 0.02983024
000200 70 ec db 3c f9 2b 99 3b 7d 5b 15 3d 4e d7 5e bb
       0.02684614 0.0046744314 0.036464203 -0.0034002843
000210 7b 4f e7 3c 13 35 c9 3c d9 0b 1e 3d 63 e0 a9 3a
       0.028236141 0.02456144 0.038585518 0.0012960549
000220 5f 4b fb 3b 19 b1 83 3c 25 e5 7a bc ff b7 f0 3c
       0.007668897 0.016075658 -0.015313421 0.029384611
000230 92 d4 df 3c 83 33 58 3d f7 43 71 3c bc c3 80 3c
       0.027323041 0.0527835 0.014725677 0.015718333
000240 2c 6c 1f 3d 3d 50 0d 3d 6a b8 f6 bb a4 8c 57 3d
       0.03892152 0.03450035 -0.007529308 0.05262436
000250 03 13 98 3d a8 0f 57 3d f9 21 c2 3c e3 37 8f 3c
       0.07425501 0.052505165 0.02369784 0.017482704
000260 6a ea 10 3c e2 ec c6 bc d4 f1 f5 bc 2a 04 37 3c
       0.008844951 -0.024282876 -0.03002254 0.011170426
000270 2c 22 e7 3c 08 6d 97 bc c7 44 97 3b 6d 70 d4 3c
       0.028214537 -0.018484607 0.004616353 0.025932515
000280 ed fb aa 3c 95 a7 78 3c 4f 58 05 3d 80 43 99 3c
       0.02087208 0.015176673 0.03255492 0.018708944
000290 3d fb a9 3c ab d1 53 bb 30 21 29 3d f2 91 0a 3b
       0.020749683 -0.0032321017 0.041291416 0.002114412
0002a0 be 8f 8c 3d 8f e3 3c 3d 38 4f 62 3c 6e 54 25 3b
       0.06863354 0.046115454 0.0138128325 0.0025227326
0002b0 c7 79 64 3d 19 92 34 3c eb 6e 8f 3c e3 c6 e7 3b
       0.0557802 0.0110211605 0.017508944 0.0070732697
0002c0 49 9b 6c 3d eb 98 76 3d e0 2a 18 3d 8a a0 0f 3c
       0.05776528 0.060204428 0.037150264 0.008766303
0002d0 59 63 3d 3d 10 4f d8 3c df 70 9f 3c 57 3d 66 bc
       0.046237323 0.026404887 0.019463 -0.0140527105
0002e0 ae 9c 50 3c af c5 1b 3c db 58 1e bb c4 3a 46 bc
       0.012732668 0.009507581 -0.0024161849 -0.012098972
0002f0 f0 b8 c4 3c 6e 79 95 bb f1 3d 17 bd 15 3f 32 bc
       0.024013966 -0.0045615947 -0.036924306 -0.010879298
000300 22 5b d5 3c ce 93 aa 3c 52 f3 84 bc 18 e3 93 3c
       0.026044432 0.020822432 -0.016229305 0.018052623
000310 60 91 20 3b 8e 97 4e 3d 0e 53 3d 3b d4 7a 62 3c
       0.0024500713 0.050437503 0.0028888616 0.01382323
000320 20 6e 17 3d d9 1e 6c 3d 67 09 c6 3c fc e1 a4 bb
       0.036970258 0.057646606 0.024174405 -0.0050318222
000330 08 74 72 3d cf 1c 51 3c 51 67 69 3c ba 56 aa 3c
       0.059192687 0.012763216 0.014245824 0.020793308
000340 ad 25 17 3d 54 3e d6 3c 03 3b 40 bd 07 d0 c4 bb
       0.036901165 0.026152767 -0.046931278 -0.006006244
000350 38 88 16 3c 41 27 dd bc b4 be 3b 3c c7 19 54 3d
       0.0091877505 -0.026996257 0.011459041 0.051782396
000360 29 c8 1d 3c 27 89 8e 3d 8f ba 0c 3d f8 80 c0 3b
       0.009630241 0.069597535 0.034357604 0.0058747493
000370 6a 10 b6 bc bd aa 9c 3c 54 6d 7d 39 fb 69 5c 3d
       -0.022224624 0.019124383 0.00024168688 0.05381201
000380 50 94 59 3d e6 c0 db bc 54 ca 1c 3d ed 63 86 3b
       0.053119957 -0.02682538 0.038278893 0.0041012676
000390 44 87 a6 3c 46 a1 37 bc 96 7e b1 bc 53 16 a7 3c
       0.020328172 -0.011207884 -0.021666806 0.020396387
0003a0 02 3e f0 bb 67 06 30 3d 8f 0b 0a 3d 2d 5f 3f 3d
       -0.0073316107 0.042974856 0.03370243 0.046721626
0003b0 77 c5 46 3d b3 b4 6b 3d 75 39 53 3d 9f db 9e bc
       0.04852816 0.057545375 0.051568467 -0.019391833
0003c0 3b 7f 26 bc 17 a6 64 3d 6b be 78 3d bc ec 58 3d
       -0.01016217 0.055822458 0.06072847 0.052960142
0003d0 f2 4f 8a 3d d8 27 34 3d a9 dd 0d 3d 8f 2f fa bc
       0.067535296 0.04398331 0.03463522 -0.030540256
0003e0 fc 1c f9 3b 9d 57 db bc 52 aa 11 bc 33 26 a1 bc
       0.007602332 -0.026775176 -0.008890705 -0.019671535
0003f0 df e7 9d bc d0 27 01 3d f3 54 2a 3c 42 a4 5b bc
       -0.019275604 0.03153211 0.01039623 -0.013405861

layers.1.bias f4 [120]
000000 fc b2 24 3d 15 33 3a bd 92 15 09 3c 90 5e 05 3d
       0.040209755 -0.045458872 0.008366959 0.032560885
000010 c1 df 47 bd fb 0b 0e 3d 02 3f ca 3c 06 fc 32 3d
       -0.048797373 0.034679394 0.024688248 0.04369738
000020 30 0d 52 3c 67 77 b5 bc d9 d2 16 3d c8 89 d5 bc
       0.012820527 -0.022151662 0.036822174 -0.026066676
000030 ed 8c bd bc 4a 95 8c bb 19 86 70 3c 65 48 61 3d
       -0.023138488 -0.0042902576 0.014680409 0.05500068
000040 6c e0 80 3c de bf c5 3c 9e 66 37 bd 30 56 d9 3b
       0.015732013 0.024139341 -0.044775598 0.006632589
000050 d5 97 cc 3c 20 72 0e bc 37 77 a6 3c c1 e9 0c bc
       0.024974743 -0.008694202 0.020320518 -0.008600653
000060 5d 00 25 bd 12 7a 62 3d 60 6d 57 3c 31 b9 e0 bb
       -0.04028355 0.055292197 0.013148636 -0.006858014
000070 e9 2b d6 bc d3 ca a3 bb 8c f5 0e 3c 18 a7 4b 3d
       -0.026143985 -0.0049985438 0.008725535 0.0497199
000080 15 57 96 bc d8 22 10 3d 49 66 08 3d 8d d2 ae bc
       -0.01835207 0.03518948 0.03330067 -0.021340633
000090 63 09 16 ba 36 a1 73 3d 58 79 4b bd 9a 9e 4c 3d
       -0.00057234446 0.059479915 -0.04967627 0.04995594
0000a0 5a cd 43 3d 92 85 16 bc 6e 8a 4d 3c 2e b4 d1 bc
       0.04780326 -0.009187119 0.012545211 -0.025598612
0000b0 d6 18 4e bd f1 bd 81 3d 7c c1 aa bc 89 d5 45 3c
       -0.050316654 0.063350566 -0.020844214 0.0120748365
0000c0 d3 34 0a bc 3a 56 63 3d 5a 3c 5b 3d 9d 8c 27 bd
       -0.008435446 0.055502154 0.053524353 -0.040905584
0000d0 11 cb 8b 3d df e6 6d bd 5e 12 a1 3d 2a c4 8c 3d
       0.06825841 -0.058081504 0.078648314 0.06873353
0000e0 55 00 c0 bc 51 5d 11 bd 26 0c 75 bc 80 61 9e 3d
       -0.023437658 -0.035489384 -0.01495651 0.077334404
0000f0 42 3b a5 bc dc f5 f7 3c e2 85 5b bc 38 2f 59 bc
       -0.020169858 0.030268602 -0.013398619 -0.013255887
000100 d1 b4 00 bb d4 06 37 3c 46 61 96 3c ed 57 8d bb
       -0.0019639025 0.011171062 0.01835693 -0.00431346
000110 2b 22 53 3d c2 e5 cd 3a 6f eb 28 3d 9a 9a 34 3c
       0.051546257 0.0015708732 0.041240152 0.011023188
000120 07 45 41 3d dd 12 cc bb 63 57 9c 3c 56 15 81 bc
       0.04718497 -0.0062278346 0.019084638 -0.015757244
000130 f7 0d 59 bd db aa 36 bc f9 e8 29 bd 75 d5 0f bd
       -0.052991834 -0.011149134 -0.041481946 -0.035115678
000140 73 72 ad 3c 11 d4 e1 bc 3c 2d 43 3d a5 4e 59 3c
       0.021172738 -0.027566941 0.04765056 0.013263379
000150 d1 e1 af bc 5c 8b 22 3a c9 0d 80 3d 0a 12 57 bd
       -0.021469982 0.0006200576 0.06252629 -0.052507438
000160 34 db bd bb 32 fc 26 bc 7c a4 14 3d 3a 53 28 3d
       -0.0057939533 -0.010191964 0.036289677 0.041094996
000170 3a 6b d5 3c 1a f7 ed 3c 41 38 3c 3d c8 e4 d4 bb
       0.026052106 0.029048491 0.045952085 -0.0064969994
000180 5a e0 86 bc ae ac c2 3a ac ec 52 3c b1 9a 7a ba
       -0.016464401 0.0014852488 0.01287381 -0.0009559794
000190 ed 1f 87 3d d0 46 96 3c 20 b8 30 3d 90 06 49 3d
       0.06597886 0.018344313 0.043144345 0.049078524
0001a0 85 4e 84 3d b3 44 52 3c 6f 0e 54 3d 98 18 c5 bc
       0.06460289 0.012833762 0.051771577 -0.024059579
0001b0 0b d1 15 bc 2d 4b cc bc 3d 1a 58 3a 69 93 cf 3c
       -0.009144078 -0.02493819 0.0008243656 0.025338845
0001c0 fb d9 3d 3c df ab 11 bc ba 0b e3 bc 28 03 a3 3c
       0.011587615 -0.008891075 -0.027715553 0.019898966
0001d0 91 23 27 bd 12 d8 62 3c 6f 75 f2 3b 46 cb d3 3b
       -0.040805403 0.0138454605 0.007399253 0.006463441

layers.3.weight f4 [84, 120]
000000 60 59 05 bb 8f 01 1a bd 97 57 b0 bd 48 78 4b 3d
       -0.002034746 -0.037599143 -0.086104564 0.049675256
000010 0e e0 95 bd d0 72 1c 3d ca 52 8b bd 60 5b 99 3d
       -0.07318126 0.03819543 -0.068029 0.074881315
000020 d8 2a 4d 3d fa b9 77 bd 78 2b e9 bc 20 28 7c bd
       0.050089687 -0.060480095 -0.02846311 -0.061561704
000030 48 9c ca 3c 20 39 0e bd db 30 2e bd a8 eb ca 3c
       0.024732724 -0.034722447 -0.04252706 0.024770573
000040 00 24 5f b9 ac dc 80 3c 00 6a 27 bd c4 b1 96 bc
       -0.00021280348 0.015730225 -0.040872574 -0.018395312
000050 34 ac 74 3d 03 ff 86 bd f0 aa 64 bc 77 3d 52 bd
       0.05973454 -0.065916084 -0.01395677 -0.05132815
000060 cc f8 8a bd 3d f3 b1 bd 63 d5 a7 bd c5 b9 70 bd
       -0.067857355 -0.08688972 -0.08194997 -0.058770914
000070 64 b9 ac bd 70 d4 03 bd b8 93 b0 bd b0 7d 08 bc
       -0.08433798 -0.032185018 -0.08621925 -0.0083307475
000080 98 62 89 3d a0 e8 53 3c ae ce 99 bd 10 b2 25 3d
       0.067082584 0.01293388 -0.07510124 0.040453017
000090 30 41 93 3c 58 c5 1a 3d 9b 48 85 bd 38 93 04 3c
       0.01797542 0.037785858 -0.06507989 0.00809174
0000a0 cb d8 1e bd 2c 27 a6 3d 60 79 6a 3c 00 9c 0b bb
       -0.03878097 0.0811294 0.014311165 -0.00213027
0000b0 78 63 d0 3c 9a 25 b6 bd 96 bb fc bc 0f 87 2d bd
       0.025438055 -0.08893891 -0.030851167 -0.04236513
0000c0 ca 12 af 3d 90 de 67 bd 08 9d a2 bc f8 c9 76 3c
       0.085485056 -0.056608737 -0.019850269 0.015062802
0000d0 90 50 f8 bb 4c a9 d7 3c f4 b4 9b 3d 88 38 13 3d
       -0.007577963 0.026325844 0.076028734 0.035942584
0000e0 10 6c 2e 3c b8 96 25 3c 84 92 fb bc d7 ed 2e bd
       0.010645881 0.010106735 -0.030709513 -0.04270729
0000f0 e5 14 8a bd 30 e9 a9 3d d8 34 bc bc 67 fa 93 bd
       -0.067422666 0.0829643 -0.022974417 -0.07225495
000100 60 ea 3e 3d 60 d8 a7 bb 8b 49 6c bd c4 cc 69 3d
       0.046610236 -0.0051222295 -0.057687324 0.057080045
000110 7c e7 82 bc 9c 0f f0 bc a9 2b 43 bd c8 64 75 3d
       -0.015979521 -0.029304318 -0.04764906 0.059910566
000120 59 b0 46 bd 84 6d ac bd 82 f2 89 bd 84 af 3f 3d
       -0.048508022 -0.08419326 -0.06735708 0.046798244
000130 c0 11 65 3d dc 5a b1 3d 18 2b 82 bc 58 54 9b 3c
       0.05592513 0.08659908 -0.01588969 0.018961117
000140 08 14 69 bc 30 8a 10 3d 50 52 a9 bd 74 06 cc 3c
       -0.014225967 0.035288036 -0.08267653 0.02490542
000150 82 a2 2e bd 6e c2 a0 bd 54 c5 53 bd 40 33 fc 3a
       -0.04263545 -0.078495845 -0.05170186 0.0019241348
000160 1f ce 9d bd dc e1 94 bc f9 3b a1 bd 20 80 e1 bb
       -0.0770533 -0.018174104 -0.07872767 -0.006881729
000170 00 31 94 3b a9 12 a1 bd 38 8a 7a 3c a1 19 b6 bd
       0.004522443 -0.07864887 0.015291743 -0.08891607
000180 17 22 96 bd 48 0e 6a 3c dc 07 8e 3c 2c 2a 6d 3d
       -0.07330721 0.0142856315 0.017337732 0.057901546
000190 2a 1e 52 bd e1 51 99 bd 82 73 b9 bd ca 0c ae 3d
       -0.051298298 -0.0748632 -0.090552345 0.08498533
0001a0 88 0f 5a 3d 1b d8 04 bd b4 df d6 bc 68 84 75 bc
       0.053237468 -0.032432657 -0.026229717 -0.014985181
0001b0 36 93 68 bd 50 4a 9a 3d 20 3f 1c 3b 4c 01 1d bd
       -0.056781016 0.07533705 0.0023841336 -0.038331315
0001c0 82 35 fa bc 2e 5f f4 bc 7c f4 9e 3d 28 58 a0 3d
       -0.030543093 -0.029830541 0.077614754 0.078293145
0001d0 64 95 40 3d 80 74 11 3b b1 7a 86 bd 5c 36 5f 3d
       0.04701747 0.0022194684 -0.0656637 0.0544952
0001e0 04 7d 9d 3c da 95 f5 bc 04 d9 42 3c c4 22 24 3c
       0.019224651 -0.029978681 0.011892561 0.010018054
0001f0 19 c0 87 bd 2c 4f 70 bb d2 36 7d 3a 93 07 03 3e
       -0.066284366 -0.0036668284 0.0009659353 0.12795858
000200 ab 9c 4b bb 63 56 07 bd 81 5f e5 3d 20 95 87 bc
       -0.0031068723 -0.03304137 0.111998565 -0.0165506
000210 86 81 86 3c 17 bb 7b bd e7 b3 22 3d af 17 96 3d
       0.016419183 -0.06145772 0.03972235 0.07328736
000220 bf d8 bf 3c 74 63 0d 3e e4 0a 25 3d 01 7e 26 3d
       0.023418782 0.1380747 0.04029359 0.04064751
000230 2d 0f 9f 3d 63 86 9c 3c 12 cb 80 3b 51 68 1e bb
       0.077665664 0.01910705 0.003930458 -0.0024171064
000240 0a e7 43 bc 6d 66 5a bd f1 71 ef b9 bf 44 a9 bd
       -0.0119569395 -0.053320337 -0.00045670525 -0.082650654
000250 7d 9f 5a 3d 23 65 52 3c ef 6d 7d 3c d0 d8 e1 bd
       0.053374756 0.012841496 0.015468105 -0.11027682
000260 b9 dd 9d bd ba 67 e7 3d 0a cc c6 bb 53 9c 2a bd
       -0.07708306 0.11299081 -0.006066804 -0.04165299
000270 4b a5 c5 bb 90 df c3 3d 93 1a 48 bd c2 d4 00 3e
       -0.0060316673 0.095641255 -0.04885347 0.1258116
000280 e9 d9 9c bd 73 46 04 bc 0b 2b e2 bc 6a 80 94 bd
       -0.076587506 -0.008073437 -0.027608415 -0.072510555
000290 1b 09 25 bd bb 5b e8 bc 69 ec c1 3d 68 03 4c bd
       -0.040291887 -0.028364053 0.0946892 -0.049807936
0002a0 5d 84 7f 3c 16 34 64 bd 82 14 47 3d 57 55 7c 3d
       0.015595523 -0.055713736 0.048603542 0.061604824
0002b0 d4 30 88 3d ce fe cf 3c 87 56 dd bd b5 91 b0 3d
       0.06649938 0.025390055 -0.108075194 0.086215414
0002c0 73 37 99 3d 93 84 57 bd f7 c1 74 bd 33 62 9b bd
       0.07481279 -0.052616667 -0.05975529 -0.075870894
0002d0 a1 7e a4 3c d4 78 ab 3c a5 b0 18 3d 14 da 39 bd
       0.020079913 0.020931639 0.037277836 -0.04537399
0002e0 35 4b 98 bd d0 df a9 3d 02 64 bc 3d 76 99 0b 3e
       -0.074362196 0.08294642 0.091987625 0.1363276
0002f0 38 b8 3b 3c 2d ee 35 bd b6 7a fc 3c 7f 6a 3f 3d
       0.011457495 -0.044416595 0.030820232 0.046732422
000300 a8 42 0b bc 67 c6 e4 bc 61 f8 48 bc cc c8 5c 3d
       -0.008499779 -0.027926637 -0.012266249 0.053902432
000310 64 3f a2 3d 0d a6 b9 3d 4f 5e 2b bd 94 32 45 3d
       0.07922247 0.09064875 -0.041837987 0.04814394
000320 31 1b 2a bd f5 18 d7 bc 53 5c 87 3c 75 ac e4 3c
       -0.041529838 -0.026257018 0.016523516 0.027914265
000330 1d 4c aa bd 2a 16 14 bd 5a 17 ce bc d3 d4 0a bd
       -0.08315299 -0.03615395 -0.02515762 -0.03389437
000340 d1 19 ff bc c4 ef 4f bd 88 a4 50 3d 9b 71 a8 3d
       -0.03114024 -0.050765768 0.05093816 0.082247935
000350 99 b4 83 3d 9d 24 db bd 62 2d 4a 3d 55 09 d8 ba
       0.06430931 -0.10700343 0.049359687 -0.0016482273
000360 cc 4b 78 3c e8 f2 01 3d e6 03 1e 3d 0b 7b bc 3d
       0.01515479 0.031725794 0.038577937 0.09203156
000370 6a cd 17 3d 47 08 10 3d b9 a8 c7 3d 5c d9 c5 3d
       0.037061132 0.035164144 0.09748978 0.09660599
000380 bc 3f 13 bd a8 c4 b1 bd dc 47 bf bd ee c9 d6 bc
       -0.035949454 -0.08680087 -0.09339878 -0.026219334
000390 a1 f0 79 3d da 33 56 3d 9c e7 87 3c 36 6e 9f ba
       0.061020497 0.052295543 0.016589932 -0.0012163583
0003a0 dc 55 8f bd 52 53 39 3d e7 4f a4 3d 56 cd 38 3d
       -0.06998798 0.045245476 0.08023053 0.0451177
0003b0 6e d6 a5 3d 76 fe 05 3c 88 29 8d bd bd 53 80 bd
       0.0809754 0.008178344 -0.06892687 -0.06265972
0003c0 1b 19 d1 3d df cb 37 3d bc bd de bd ae 52 4f 3d
       0.102098666 0.04487216 -0.10876033 0.05061596
0003d0 ce a1 9b ba c5 53 8d 3d eb de d2 bd 14 e7 6e bd
       -0.0011873783 0.069007434 -0.102964245 -0.058325842
0003e0 fd a2 f6 3c e5 24 2d 3d c1 f5 13 3c a6 70 2e 3d
       0.030107016 0.042271513 0.00903076 0.0425879
0003f0 3e 94 a5 bd 6c 2f e1 bc 56 5a aa 3c 1a bb d2 bb
       -0.080849156 -0.027488433 0.020795029 -0.0064309957

layers.3.bias f4 [84]
000000 e4 ed 29 3d 4d 50 b9 3d 3a c9 a1 3d e4 97 e5 bc
       0.041486636 0.09048519 0.07899709 -0.028026529
000010 2e f7 cd bc 35 28 5a bd 15 d7 52 3d 45 ae 68 bd
       -0.025142279 -0.053261 0.05147465 -0.05680682
000020 82 b7 ac bd 4f e1 8d bd 60 b6 41 3d fd 01 c4 3b
       -0.08433439 -0.0692774 0.047293067 0.0059816823
000030 78 4a cc 3d b1 2f d7 3c 61 be 81 3d d3 80 7c bc
       0.09975141 0.026267858 0.0633514 -0.015411573
000040 23 de ef 3b 4a e3 00 bd 53 9e 26 3d d2 5b 2e bd
       0.007320182 -0.03146676 0.040678333 -0.042568035
000050 7e 1c 02 bd af c8 d8 3d 65 31 0e bd 08 c1 5a 3d
       -0.031765454 0.10585152 -0.034715075 0.053406745
000060 23 3b 30 bd 75 0d 32 3d 7f 43 cd bb 73 24 83 bd
       -0.043025147 0.043469865 -0.0062641497 -0.064034365
000070 70 49 f5 bc d1 80 ba 3d ee 96 17 bd 65 7d 97 3d
       -0.029942244 0.09106601 -0.037009172 0.07396964
000080 d4 b5 17 bd e1 dd 57 bc 0c 5c 4d 3d 47 36 a3 bc
       -0.03703864 -0.013175459 0.05013661 -0.019923342
000090 42 73 20 3c ac 12 23 3d 14 9c 0e 3d 70 ce 8a 3d
       0.009793105 0.03981273 0.034816816 0.06777656
0000a0 aa 4e 14 3c 47 bf d0 3d 45 86 4a 3d 18 2a e9 3c
       0.009051958 0.10192733 0.049444456 0.028462455
0000b0 14 61 dc 3d 97 36 85 bd d4 f0 c0 bd b4 c7 42 3d
       0.10760704 -0.06504553 -0.09420934 0.047553733
0000c0 84 54 e4 3d ac 80 cc 3d aa 83 d7 3d 01 9e e4 3d
       0.111489326 0.0998548 0.1052316 0.11162949
0000d0 6b 8c d4 bb 6c 5a b0 bd 8e 3f 90 3d 32 ce 7b bd
       -0.0064864657 -0.086109966 0.07043372 -0.06147594
0000e0 62 f7 9e bd 6c 93 81 3c ec 63 8d 3c 0d ce 89 bd
       -0.07762028 0.015817367 0.01725956 -0.06728754
0000f0 b4 a7 40 3a ef c6 80 3d a2 65 03 3d 98 4f 63 3b
       0.00073492085 0.062879436 0.032079346 0.0034684893
000100 85 d8 88 39 2d 21 50 bd 52 51 66 3d a5 93 20 3d
       0.0002610126 -0.05081289 0.056229897 0.039203305
000110 99 61 21 3d d6 c3 e5 3d 51 4b 58 bd 9e 18 4d 3c
       0.039399717 0.11218993 -0.052806202 0.012518076
000120 29 f5 0a bd d9 17 60 3d 8b d8 90 3d 2f 08 55 3d
       -0.03392521 0.054710243 0.07072552 0.052009758
000130 2c 0a ee bc 2e 17 81 3d 29 de 28 bd 9b 58 9a 3d
       -0.029057585 0.06303249 -0.041227493 0.075364314
000140 70 93 5e bd 12 57 1f bd 6d 43 cc bc ac a9 89 3d
       -0.054339826 -0.038901396 -0.024934495 0.067218155

layers.5.weight f4 [5, 84]
000000 1c 53 cb bc e6 1a af bd e6 64 eb 3b 2d 84 cb 3c
       -0.024819903 -0.08550052 0.007183659 0.0248433
000010 3c ea b7 3d 98 8a d2 3d 41 fd e1 bc d8 93 05 be
       0.089802235 0.10280341 -0.027586581 -0.13044679
000020 0e d1 73 3d 90 12 d8 bd f4 04 08 bd 42 18 8f 3d
       0.059525542 -0.105504155 -0.03320785 0.06987049
000030 14 b7 af 3d e0 5d 81 3c 00 da d0 3d a3 8f fb 3d
       0.08579841 0.015791833 0.1019783 0.12283256
000040 2b 00 22 be ce 54 cb bc 6d 40 a6 bd 99 ed e4 3d
       -0.15820377 -0.024820711 -0.08117757 0.11178131
000050 52 7d 20 3d e6 77 de 3d fc d5 b8 3d 17 bf be 3d
       0.039182015 0.108627126 0.09025189 0.09313791
000060 0a b9 97 bd e1 49 29 bd 88 8d ce bd 81 13 9c 3d
       -0.0740834 -0.041330222 -0.10085589 0.076209076
000070 da f4 83 bd c5 6f 4d bc 64 f6 d7 3c 15 e2 06 3e
       -0.06443186 -0.012538855 0.026362605 0.13172181
000080 da a3 9d bd 6e f9 fe 3d d2 db b4 bd 2b 59 18 3e
       -0.07697268 0.12449919 -0.0883099 0.14877765
000090 26 53 0f 3e a2 7f fb bd 85 10 27 3d 89 06 ed 3c
       0.13996562 -0.122802034 0.04078724 0.02893378
0000a0 e1 1d 44 3d ec 80 86 3d 3b b1 bf bd d2 d3 1c be
       0.047880057 0.06567559 -0.09359976 -0.15315178
0000b0 30 aa dd 3c cd 47 c8 3d 75 8d 14 3d 66 83 bb bd
       0.02705869 0.0977932 0.036267716 -0.09155922
0000c0 8c 17 17 bb e8 9c c4 bd 4a 69 ab 3c 50 dc f3 bd
       -0.0023054807 -0.0960024 0.02092423 -0.11907256
0000d0 2c 29 bd 3d ab b6 f4 bd 9c 1d d1 3d a2 24 d0 bd
       0.092363685 -0.11948904 0.10210726 -0.10163237
0000e0 e1 36 80 bd c6 6f 7f 3d ef 6e ca bd 06 24 d8 3d
       -0.06260467 0.062362455 -0.0988444 0.10553746
0000f0 4b 31 95 3d f6 1c 66 bd 60 24 5b 3d 29 80 e5 3d
       0.072847925 -0.056179963 0.053501487 0.11206085
000100 2c bd 02 3e ea da fd 3b c3 37 ca bd 4f 64 4c bd
       0.12767476 0.007747044 -0.09873917 -0.04990035
000110 6f 49 55 3b 0b a4 00 3e 9c 53 f3 bc 50 96 9b bd
       0.003254499 0.12562577 -0.029702954 -0.07597029
000120 0f 1b 48 3d 8d c9 ea 3d fb 26 13 be 7e 91 55 bd
       0.04885393 0.11464224 -0.14370339 -0.052140705
000130 ac 85 a5 3b 60 3e d3 bc 34 3d cb 3d a3 a6 a4 bc
       0.0050513353 -0.025786579 0.09923783 -0.02009899
000140 22 4e 43 3d 3d 0b fe bd 26 37 7f bc 14 ce 32 3d
       0.047681935 -0.12404487 -0.015577113 0.043653563
000150 36 21 31 3d 17 53 be bc e6 bd e4 bc b1 f7 d5 bb
       0.043244563 -0.02323298 -0.027922582 -0.0065297713
000160 c8 87 4b bd 2b ee fb bc 8b 10 07 bd fd ec 1c bb
       -0.049690038 -0.030753216 -0.03297476 -0.0023944967
000170 40 6d 60 3b 91 9a a7 bd 2b 38 01 3e 7b 00 0b be
       0.0034244806 -0.08183778 0.12619083 -0.13574402
000180 ae f8 1f be f1 07 14 be 94 9d 82 3c 7c 60 8c 3d
       -0.15622208 -0.14456154 0.01594428 0.068543404
000190 61 54 01 be 80 af dc bd 5a 75 df 3d 1f 1a 85 bd
       -0.12629844 -0.107756615 0.10911055 -0.06499123
0001a0 e8 90 09 bc 21 d7 65 bc e0 af fe bc fa e2 3c bd
       -0.008396365 -0.0140283415 -0.031089723 -0.0461149
0001b0 f3 30 4d bc e2 82 0d 3e f3 8d 0e 3e 25 41 a1 3c
       -0.012523877 0.13819459 0.13921337 0.019684384
0001c0 66 75 ae 3d 4e 52 19 be b6 29 b5 bd 2c 43 85 bd
       0.08518486 -0.14972803 -0.08845846 -0.06506953
0001d0 92 8e 8b 3d 3f d8 45 bd 9b b3 16 3e 54 ac 63 bc
       0.068143025 -0.04830193 0.14716952 -0.013896067
0001e0 0a 7b 0a be 57 fa 17 3d db 18 07 bd 02 a1 02 3d
       -0.13523498 0.037103977 -0.03298269 0.03189183
0001f0 04 87 a0 bd 74 5b 93 3d 24 1d 0f 3e 67 fc 0f 3e
       -0.07838252 0.07195178 0.1397596 0.14061128
000200 98 6c 90 bd f5 28 03 bc 96 54 06 3d b6 aa 83 bd
       -0.070519626 -0.00800537 0.03279551 -0.06429045
000210 c2 ba 0e 3e a8 f5 01 3e f4 b5 3a bc 36 47 b6 3d
       0.1393843 0.12691367 -0.01139592 0.08900301
000220 48 c1 30 bd a1 2f cd 3d d7 4a 41 3d f1 00 b2 3d
       -0.043153077 0.1001885 0.047190513 0.08691586
000230 bf 61 c1 3d ec b9 36 bd 74 5f 0e 3e 97 57 3e 3d
       0.09442472 -0.044610903 0.139036 0.04647025
000240 83 d8 05 3e d1 79 1e 3e 5b 50 ef bc eb bb 51 bd
       0.13070874 0.15476157 -0.029213121 -0.051204603
000250 e8 b0 d3 bd ce 22 bc bd 4c 11 96 bd d6 34 c8 bd
       -0.103364766 -0.09186326 -0.07327518 -0.09775703
000260 73 6d 2b 3d 5c 15 9f 3c 15 c1 5f bd c4 85 d8 bc
       0.041852426 0.019419365 -0.054627497 -0.026430972
000270 fb 59 0c be 43 c9 1d be d2 fc d3 bd 8e 9c 11 be
       -0.137062 -0.15408807 -0.10350956 -0.14219877
000280 5c 4c 83 3b 9f a0 ec bd 9c e9 c7 bd 3e b3 40 bd
       0.0040069055 -0.115540735 -0.09761354 -0.04704594
000290 73 da b1 bd 52 6b e3 bd e0 1f ae bd e5 96 a3 3c
       -0.08684244 -0.11104454 -0.085021734 0.019969413
0002a0 42 1e 8b bd 0d 5b 4d 3d 65 aa b8 bd 25 b7 26 be
       -0.067928806 0.05013566 -0.09016875 -0.16280802
0002b0 d6 2b 4e bd e4 63 22 3e b9 5d 8f bd ac 73 af bc
       -0.050334774 0.15858418 -0.07000298 -0.021417461
0002c0 d1 e1 85 3d 4a f6 9e 3d 68 7a 15 bd 46 34 be bc
       0.06537212 0.0776182 -0.03649369 -0.023218285
0002d0 12 52 8a bd af b8 ba bc bf 26 01 3e dd 7b 26 3d
       -0.06753935 -0.022793142 0.12612437 0.04064547
0002e0 17 26 59 3c 8f af fd 3d f5 fc 01 be 7b 85 06 be
       0.01325371 0.12387001 -0.12694152 -0.13136856
0002f0 32 3c 0e bd b5 c3 c9 bd 12 ea 83 3d bc c9 c1 bd
       -0.034725375 -0.09851781 0.0644113 -0.09462306
000300 a6 c7 c9 bd f5 3b 12 3e 0c 9d 8f bd 39 2c 0e 3c
       -0.09852533 0.14280684 -0.07012376 0.008677536
000310 d2 75 cb bc d3 a5 8a 3d eb 06 cf 3d 41 5c a1 bd
       -0.024836455 0.0676991 0.101087414 -0.07878924
000320 b4 55 43 bd 3f 3d 08 be 97 57 ae bd 3c 9e 0c bc
       -0.047689155 -0.13304614 -0.085128 -0.008582648
000330 65 38 1b be 61 fb 25 3d 6c e4 1c be c4 c0 f0 bd
       -0.15158232 0.040522937 -0.15321511 -0.11755517
000340 d2 82 80 bd 2a a2 bb bd 65 54 8d bd d5 af 8b bd
       -0.06274952 -0.0916179 -0.069008626 -0.06820647
000350 1f 0c c0 3d 11 5e 15 3d 8c cb 82 bd 99 28 66 bd
       0.09377312 0.03646666 -0.0638648 -0.05619106
000360 2c 30 0d 3e b5 43 02 bd 07 c4 1d 3c f5 9c 04 bd
       0.13787907 -0.03180285 0.009629256 -0.03237625
000370 fc 4c 0d be cd 13 49 3d 81 3d a7 3d 83 47 ec 3d
       -0.13798898 0.04909115 0.08166028 0.11537077
000380 1a b1 bc 3d 00 96 ae ba c7 ed c6 3d 68 d1 d3 bb
       0.09213467 -0.001331985 0.09713321 -0.006464172
000390 8e 76 07 be 50 4e b5 3d 34 ba b4 3d b5 96 95 3d
       -0.13228819 0.088528275 0.08824578 0.07304136
0003a0 f3 50 f5 bd 8f 3b 18 3e d5 16 14 3d 09 7d a6 bd
       -0.119783305 0.1486647 0.036154587 -0.08129317
0003b0 ea 27 e8 bd 79 eb 36 bd c6 75 8f 3d 80 50 3e bd
       -0.11335738 -0.044658158 0.070048854 -0.04646349
0003c0 e8 e8 b7 3d ba e4 f6 bd 64 3e ae 3d e4 4d 04 3d
       0.0897997 -0.12055345 0.08507994 0.032300845
0003d0 93 97 95 3d e2 a4 99 3c ae 3c 93 bd 8e 42 0b 3e
       0.07304301 0.01875538 -0.07189308 0.13599607
0003e0 23 20 04 be af 50 0c 3e e6 0d fd bc e9 33 66 bd
       -0.12902884 0.13702653 -0.030890416 -0.05620185
0003f0 ed a0 9c 3d 54 06 95 bd e8 01 3e 3c 3e 6a dd 3d
       0.07647882 -0.072765976 0.011597134 0.1081128

layers.5.bias f4 [5]
000000 64 dd fa 3d fc 6a 3d bc 36 63 26 3d 21 23 09 3d
       0.12249258 -0.011561152 0.04062196 0.033480767
000010 19 3f a0 bd
       -0.07824535
