fangzhen/ifr-ros2-rm/rm_armor_finder/model/model-test/model_sm.onnx (onnx, 284579 bytes, 6 tensors)

layers.1.weight f4 [120, 500]
0	0x3c40516e	0.011738164
1	0xbd2b15e1	-0.041768912
2	0xbd8a0a94	-0.06740299
3	0xbca1c9d6	-0.019749563
4	0xbd05b128	-0.032639652
5	0xbc4536d8	-0.012037002
6	0xbc9c5b11	-0.019086393
7	0xbd3bf702	-0.045889862
8	0xbd9b11f3	-0.07571783
9	0xbd389304	-0.04506208
10	0xbd9e1a09	-0.077198096
11	0xbd567636	-0.05235883
12	0xbd5c5e8b	-0.0538011
13	0xbd328e14	-0.043592528
14	0xbbfec580	-0.0077750087
15	0xbc017f94	-0.007903952
16	0x3d0ce868	0.034401327
17	0xbd4e0944	-0.050301805
18	0xbc515ffa	-0.01277923
19	0x3cdbee6a	0.026847083
20	0xbc792ca8	-0.015208401
21	0xbd014489	-0.0315595
22	0xbd7595fb	-0.059957486
23	0xbba4e5a2	-0.005032257
24	0xbd1cbfb9	-0.03826878
25	0xbd8b256e	-0.067942485
26	0xbd0ed3a4	-0.034869805
27	0xbd21f50f	-0.039540347
28	0xbd524b61	-0.05134142
29	0xbd9afa14	-0.0756723
30	0x3b4ef568	0.003157938
31	0x3bf4b77a	0.007468161
32	0xbcb40e01	-0.021979334
33	0x3c0f3490	0.008740559
34	0x3c6331cf	0.013866856
35	0x3d58c976	0.052926503
36	0xbc254dfb	-0.010089393
37	0x3d119c50	0.03554946
38	0xbd3b1e88	-0.045683414
39	0x3bf7b016	0.007558833
40	0xbce25d05	-0.027632246
41	0xbd318c38	-0.043346614
42	0xbc0d6976	-0.008631101
43	0xbd7abd1a	-0.061215498
44	0xbd2323d3	-0.039829087
45	0x3c15835c	0.009125557
46	0xbd8ea106	-0.069643065
47	0xbd835487	-0.06412607
48	0xbce81454	-0.028330006
49	0xbc9b84d7	-0.018984241
50	0x3bfad91b	0.0076552755
51	0x3be22870	0.006901793
52	0x3d53a627	0.051672127
53	0xba963631	-0.0011460242
54	0x3d911107	0.07083326
55	0x3d01a73d	0.03165363
56	0x3da034e0	0.07822585
57	0x3b1302f6	0.0022432185
58	0xbcf1b3c1	-0.029504659
59	0xbcbbe0fe	-0.022934433
60	0x3c2cc343	0.010544601
61	0x3c8f4953	0.017491018
62	0xbd153142	-0.03642393
63	0xbc99dcd0	-0.01878205
64	0xbd0b9ad8	-0.034083217
65	0xbc600fd1	-0.013675646
66	0xbd082dcc	-0.0332468
67	0xbb48df62	-0.0030650725
68	0x3a523269	0.0008018376
69	0xbc69476a	-0.014238218
70	0xbc17c967	-0.009264327
71	0x3cde4761	0.027133645
72	0x3cc5f9ea	0.02416702
73	0x3b314e4c	0.0027054725
74	0x3d1ba4de	0.037999026
75	0x3c0f7612	0.0087561775
76	0x3d0d3d80	0.03448248
77	0x3a8cc459	0.0010739669
78	0xbd11afb9	-0.035567973
79	0xbceffe14	-0.029295959
80	0xbd2ade08	-0.04171565
81	0xbc7f8bde	-0.015597312
82	0xbca2077d	-0.019778961
83	0x3c67d220	0.014149219
84	0xbc96512a	-0.018349249
85	0x3c479950	0.012182549
86	0xba0dedef	-0.0005414178
87	0xbb3812ba	-0.0028087334
88	0xbc8f488c	-0.017490648
89	0xbc501496	-0.012700221
90	0x3d4fc9fd	0.05072974
91	0xbc1320c7	-0.008979983
92	0x3b9a7045	0.0047130906
93	0x3d2df4ae	0.042469673
94	0x3d6dd729	0.05806652
95	0xbbdfee00	-0.0068337917
96	0x3d7a057e	0.061040394
97	0xbbd11d16	-0.006381641
98	0x3caca407	0.021074308
99	0xbc93bd44	-0.018034585
100	0xbcc0a905	-0.023518095
101	0xbc25cc7c	-0.010119554
102	0x3cceddb2	0.025252197
103	0x3d3eaf7c	0.046554074
104	0xbcce1126	-0.025154661
105	0x3d19ad2c	0.037518665
106	0x3cccb06d	0.02498647
107	0xbd210762	-0.03931368
108	0x3cf6544e	0.030069496
109	0x3d1305db	0.035894256
110	0x3ccb64da	0.024828363
111	0x3ca22f7c	0.019798033
112	0x3d38a396	0.045077883
113	0x3cc9d9cc	0.024639986
114	0x3cfcf229	0.03087719
115	0x3c62e647	0.013848848
116	0xb98576c3	-0.0002545622
117	0x3ce99ad5	0.028516212
118	0xbd1a5995	-0.03768309
119	0xbcb7b18a	-0.022423524
120	0x3d3cb692	0.04607255
121	0xbb3fbe93	-0.0029257878
122	0xbbe63990	-0.007025905
123	0xbcb950dc	-0.022621565
124	0xbcf002bd	-0.02929818
125	0x3d291e18	0.041288465
126	0xbcab2458	-0.020891353
127	0x3d197737	0.037467208
128	0x3d68bc87	0.05682042
129	0x3a83bcee	0.0010050812
130	0x3d29dfd0	0.04147321
131	0x3d182047	0.037140157
132	0x3d41bbcd	0.04729824
133	0x3ce37252	0.027764473
134	0xbd12758b	-0.03575663
135	0xb5cb4d58	-1.5147189e-06
136	0x3ca53315	0.02016596
137	0xbc915860	-0.017742336
138	0xbb62cc43	-0.0034606613
139	0x3d370717	0.044684496
140	0xbc058436	-0.008149197
141	0xbbed2f68	-0.0072383173
142	0xbd61a9f5	-0.055093724
143	0x3d298c3e	0.04139351
144	0x3d830ec4	0.06399301
145	0x3b85bdd0	0.0040814653
146	0x3d511cdb	0.05105291
147	0x3c25966c	0.010106664
148	0xbbed8bb6	-0.007249321
149	0xbcd1216c	-0.025528632
150	0xbcdd40fe	-0.02700853
151	0xbd14c8f5	-0.03632446
152	0x3cc91b92	0.02454928
153	0xbd50a034	-0.05093403
154	0xbcd088aa	-0.025455792
155	0xbbe7f486	-0.00707871
156	0xbd60b401	-0.054859165
157	0xbd3c9b7f	-0.04604673
158	0x3c967576	0.018366557
159	0x3cc712c3	0.024300938
160	0x3d19b9a1	0.037530545
161	0x3bf947c4	0.007607432
162	0xbd0a247a	-0.033726193
163	0xbcde5026	-0.027137827
164	0x3d65c3bf	0.05609488
165	0x3da1bc89	0.07897288
166	0x3d9d7e29	0.07690079
167	0x3cfe35f2	0.031031583
168	0x3d18a8de	0.03727042
169	0xbb14c62b	-0.0022701125
170	0x3c8093c3	0.015695458
171	0x3cb09793	0.021556651
172	0xbbae0295	-0.0053103664
173	0xbd4c764e	-0.04991751
174	0xbc4ad213	-0.012379187
175	0xbcb45357	-0.022012396
176	0xbd61d119	-0.05513105
177	0x3c874322	0.016511504
178	0x3d0a8f51	0.033828083
179	0x3d262be3	0.040569197
180	0x3cbc426d	0.022980893
181	0x3bbfcdcb	0.00585339
182	0x3cb56691	0.022143634
183	0xbd46563d	-0.048422087
184	0x3b19e493	0.0023482188
185	0x3da3bd04	0.07995036
186	0x3cd82703	0.02638579
187	0x3d9f1840	0.07768297
188	0x3cbe781c	0.023250632
189	0x3c7d3e4c	0.015456747
190	0x3d4ef4eb	0.05052654
191	0x3d16a4eb	0.03677837
192	0xbc0cacde	-0.008586137
193	0x3cc52603	0.024065977
194	0xbc5671e6	-0.013088679
195	0x3cd47096	0.025932591
196	0xbd0f017b	-0.03491352
197	0x3c3f714b	0.011684726
198	0x3c3e6b0e	0.0116222035
199	0x3cf5dc5c	0.030012302
200	0xbd0be469	-0.034153376
201	0xbcecfac3	-0.028928166
202	0x3c9ca875	0.019123295
203	0x3d26c95c	0.040719375
204	0xbc60c2ad	-0.013718289
205	0x3d9cd48b	0.07657727
206	0x3d36bea9	0.04461542
207	0x3ccf8158	0.02533023
208	0xba86f60f	-0.001029672
209	0xbc9c366a	-0.019068915
210	0x3c8332bc	0.016015403
211	0x3b46eb39	0.0030352606
212	0xbc898c1b	-0.01679044
213	0xbc096ad9	-0.008387291
214	0xbb134ac6	-0.0022474988
215	0xbc0651b2	-0.008198189
216	0xbbc896ca	-0.006121491
217	0xbc9ce90c	-0.019154094
218	0xbd0b3320	-0.033984303
219	0xbd100aae	-0.035166435
220	0xbbc6cd29	-0.0060669375
221	0x3cc70a08	0.024296775
222	0xbd167b56	-0.036738716
223	0xbd11eed4	-0.035628155
224	0xbc85f0a0	-0.01635009
225	0x3d914c77	0.07094663
226	0x3d96ad79	0.07357306
227	0xbc7fa383	-0.015602949
228	0xbba7ad13	-0.0051170676
229	0x3b417382	0.002951831
230	0xbb4056eb	-0.0029348682
231	0x3c89389a	0.016750623
232	0x3ca9ab38	0.020711526
233	0x3cac0199	0.020996856
234	0x3d4b705f	0.049667712
235	0x3d420df3	0.047376584
236	0xbce2e060	-0.027694881
237	0xbd0ced53	-0.034406018
238	0xbb492395	-0.0030691375
239	0xbbc9d04f	-0.0061588655
240	0xbca77e7a	-0.02044605
241	0x3c943c0f	0.018095044
242	0x3c4180f1	0.011810527
243	0x3d92716d	0.071505405
244	0x3c07c815	0.008287449
245	0xbb0bb116	-0.0021315268
246	0x3c8bf67f	0.017085312
247	0xbb93523a	-0.004495886
248	0x3b0f88b2	0.0021901545
249	0xbca88951	-0.02057329
250	0x3b9d918e	0.0048086112
251	0xbcc4fa20	-0.02404505
252	0x3cfdbc1b	0.030973485
253	0x3d725956	0.05916723
254	0x3d6d4408	0.057926208
255	0xbc9701f5	-0.01843355

layers.1.bias f4 [120]
0	0xbd45da05	-0.048303623
1	0xbc97ca93	-0.018529212
2	0xbcc4eab4	-0.024037696
3	0xbd1e4bd2	-0.038646527
4	0xba405e9e	-0.0007338318
5	0x3c81ca37	0.015843494
6	0xbbe4e85b	-0.0069857067
7	0x3cba23a6	0.022722077
8	0x3d549605	0.051900882
9	0xba56b9aa	-0.0008191118
10	0x3d9ff296	0.078099415
11	0x3c0fbc91	0.008772985
12	0x3d60a2e4	0.054842845
13	0x3d6cbe08	0.057798415
14	0x3a444629	0.00074872613
15	0x3c2cac21	0.010539086
16	0x3c952a49	0.01820864
17	0x3c205ddb	0.009788002
18	0xbd540d8e	-0.05177074
19	0x3b98ed81	0.0046669845
20	0x3db155c8	0.086589396
21	0x3d84febe	0.06493901
22	0x3b2084d5	0.0024493237
23	0x3b84f784	0.0040578265
24	0xbd2b599f	-0.041833516
25	0x3cb29fae	0.021804657
26	0x3c4f7c2e	0.012663884
27	0xbcff661b	-0.031176617
28	0x3ccc0225	0.024903366
29	0x3d2ebbba	0.0426595
30	0x3bab216e	0.005222491
31	0x3c3b9cb7	0.011450938
32	0x3d447476	0.04796263
33	0xbd03777b	-0.032096367
34	0x3d8315df	0.06400656
35	0x3bc32582	0.005955399
36	0x3ca34095	0.019928256
37	0x3ceeab1e	0.02913433
38	0x3d9d6d7b	0.07686897
39	0xbcf23a7c	-0.029568903
40	0x3bad1994	0.00528259
41	0xbc3a8dcf	-0.011386349
42	0x3bdb48f0	0.0066920444
43	0x3d5681ef	0.052370008
44	0x3b88af19	0.004171264
45	0x3d0bc34d	0.0341218
46	0x3d917a14	0.07103363
47	0x3cd65f1c	0.026168399
48	0xbcf67f0b	-0.030089876
49	0xbc613b12	-0.013746994
50	0x3d30d488	0.043171436
51	0xbbfca71e	-0.0077103516
52	0x3d9708b1	0.07374705
53	0x3d1b2ee5	0.03788652
54	0x3dae4366	0.08508949
55	0x3d8026ab	0.06257375
56	0xbc71867b	-0.014741535
57	0xbb74dca4	-0.0037362957
58	0x3cc18db5	0.023627141
59	0xbcf4bbd2	-0.029874716
60	0xbd042452	-0.0322612
61	0x3d8b375c	0.06797668
62	0x3c043b9c	0.008070853
63	0x3cdefd5b	0.027220419
64	0x3b13357e	0.0022462304
65	0x3d62745a	0.055286743
66	0xbd416209	-0.047212634
67	0xbd62f25b	-0.05540691
68	0xbb8110b3	-0.0039387583
69	0x3d00d615	0.031454165
70	0xbcb3060a	-0.021853466
71	0xbcf4a16b	-0.029862126
72	0xbb478f1e	-0.0030450295
73	0x3d7ad331	0.061236564
74	0xbb8820c4	-0.0041542966
75	0xbc363ffc	-0.0111236535
76	0x3d2e29ec	0.04252045
77	0x3d2fb5cc	0.042897984
78	0xbc9c32d2	-0.019067202
79	0x3d043ed3	0.032286476
80	0x3d7d701d	0.061874498
81	0x3c3d2ea9	0.011546769
82	0x3b113aff	0.0022160409
83	0xbc79803f	-0.01522833
84	0x3cc35e72	0.023848746
85	0xbb94ec59	-0.0045447764
86	0x3c90f747	0.017696036
87	0x3c9f19cf	0.019421486
88	0x3d303921	0.043023232
89	0xbba63d29	-0.005073209
90	0x3c1dff74	0.009643424
91	0xbc19f458	-0.009396635
92	0xbd5777fc	-0.05260466
93	0x3cb7cd75	0.022436837
94	0x3bed73d4	0.007246474
95	0xbc783f29	-0.015151777
96	0x3c951e7f	0.018203018
97	0x3dae019b	0.084964
98	0x3cacb384	0.021081693
99	0xbc9c2a38	-0.0190631
100	0x3c929e8d	0.017897869
101	0x3d27feb3	0.041014384
102	0xbd561d69	-0.05227414
103	0x3d09cf69	0.033645067
104	0x3d3b81a7	0.045777943
105	0x3cfeef05	0.031119833
106	0xbcee8340	-0.02911532
107	0x3db48a36	0.08815424
108	0xbd178156	-0.03698858
109	0x3cb59d60	0.022169769
110	0xbd39edfc	-0.045392975
111	0xbcaf1454	-0.021371998
112	0xbd2abe7e	-0.041685574
113	0x3d86582e	0.06559788
114	0xbc882233	-0.01661787
115	0xbb5794e2	-0.0032895138
116	0x3c3d156f	0.011540755
117	0x3c6a593c	0.014303502
118	0xbd1bf0c1	-0.038071398
119	0xbcbb888c	-0.022892259

layers.3.weight f4 [84, 120]
0	0xbd826907	-0.063676886
1	0x3d52cfe9	0.05146781
2	0x3bc2d9ad	0.005946359
3	0x3cc62653	0.024188196
4	0x3ce53f4e	0.027984288
5	0x3c066952	0.008203821
6	0xbd986efb	-0.07443043
7	0x3df7135e	0.12064241
8	0xbd4ceb6e	-0.05002921
9	0x3de5b813	0.1121675
10	0xbd36186d	-0.044456888
11	0xbd79ef60	-0.0610193
12	0x3cef4d38	0.029211625
13	0x3dd67e42	0.104733005
14	0xbc7fa284	-0.015602712
15	0xbc7f3f5b	-0.01557907
16	0xbdde29b3	-0.10847797
17	0xbd35b61a	-0.04436312
18	0x3d9013d9	0.07035036
19	0x3d99a4a4	0.07502106
20	0xbdbb9e3a	-0.09161039
21	0x3df1605b	0.117859565
22	0xbcc5329a	-0.02407198
23	0x3df8849d	0.12134669
24	0x3d3c5e6c	0.045988485
25	0x3d326cb4	0.0435607
26	0x3be039ca	0.0068428265
27	0x3ca84ee5	0.020545432
28	0xbcb53eac	-0.02212461
29	0xbd2988ef	-0.041390356
30	0x3b890601	0.004181624
31	0xbda05110	-0.078279614
32	0x3e06dd64	0.13170391
33	0x3d75d89f	0.06002104
34	0x3bcca6ce	0.0062454706
35	0xbba12dee	-0.0049188053
36	0x3ca7fc48	0.02050604
37	0xbdb2e9ee	-0.08736025
38	0x3d92575b	0.07145568
39	0xbd5a23c0	-0.05325675
40	0x3dc447d4	0.09584013
41	0xbddc799d	-0.107653834
42	0x3d71ad1f	0.05900299
43	0x3dc9cfad	0.09854064
44	0x3e191c60	0.1495223
45	0xbd9c0bb0	-0.07619417
46	0xbd2bbe48	-0.041929513
47	0x3d3f08a7	0.04663911
48	0x3d59148c	0.05299811
49	0x3cd59141	0.026070239
50	0x3e074a66	0.13211975
51	0x3e0ae98b	0.13565652
52	0xbd081149	-0.03321961
53	0xb9511b54	-0.00019941974
54	0x3da17075	0.078827776
55	0x3db01b2d	0.08598933
56	0xbd8ae35e	-0.06781648
57	0x3c981c09	0.018568056
58	0xbcfc85e8	-0.03082557
59	0x3db6087c	0.08888337
60	0x3d8a7848	0.06761223
61	0x3de252ea	0.11050971
62	0xbcc6923c	-0.024239652
63	0xbd9cf7ca	-0.076644495
64	0xbcc7228e	-0.02430847
65	0x3d5288b1	0.05139989
66	0xbc10bf8c	-0.008834731
67	0xbd76777a	-0.060172535
68	0x3c2a55c8	0.010396428
69	0x3cb96b68	0.022634223
70	0xbd0840fd	-0.033265103
71	0x3ba9f5c1	0.005186767
72	0x3c5e8cd6	0.013583383
73	0xbcde6c5b	-0.027151277
74	0x3d852f4a	0.0650316
75	0xbdbcd73e	-0.09220742
76	0x3d9eb8ea	0.07750113
77	0x3d964b33	0.07338562
78	0xbd21053c	-0.039311633
79	0xbd54735a	-0.05186782
80	0x3d950165	0.072756566
81	0x3dd6939c	0.10477373
82	0xbd46cb33	-0.04853363
83	0xbbe15162	-0.0068761567
84	0x3a9efc67	0.0012129665
85	0xbdb9f99a	-0.09080811
86	0x3dcdab88	0.100424826
87	0xbdb3e443	-0.08783772
88	0xbd445eff	-0.047942158
89	0xbd0c29a8	-0.034219414
90	0xbd768a2b	-0.06019036
91	0x3ddf4ee2	0.109037176
92	0x3d959618	0.07304019
93	0xbd5ecc26	-0.05439391
94	0x3db75363	0.08951452
95	0x3da8bf9c	0.082396716
96	0x3b115223	0.0022174201
97	0x3b69c576	0.0035670674
98	0xbcd3f4b1	-0.025873514
99	0x3c87bca3	0.016569441
100	0x3b4c72e8	0.003119642
101	0xbc8cd1a2	-0.017189804
102	0xbd915475	-0.07096187
103	0x3d97ff78	0.07421774
104	0xbc5b9058	-0.013401113
105	0xbd124673	-0.035711717
106	0x3cc715f1	0.024302455
107	0x3d30a4ae	0.0431258
108	0x3df31782	0.11869718
109	0x3d9ef7d3	0.077621125
110	0x3b03e2a7	0.002012411
111	0x3d8afe36	0.06786768
112	0xbdbcd293	-0.09219851
113	0x3e094459	0.13404979
114	0x3d0b8537	0.03406259
115	0xbc153fe4	-0.009109471
116	0x3c984ece	0.018592265
117	0xbcd5fc93	-0.026121413
118	0xbdb3c225	-0.087772645
119	0x3d44e13d	0.048066366
120	0x3ba4ad46	0.0050255386
121	0x3e1c285f	0.15249775
122	0xbd1e3a5b	-0.03862987
123	0x3d207309	0.039172206
124	0x3de44d7f	0.11147594
125	0x3cb29f78	0.021804556
126	0x3e00327a	0.12519255
127	0x3bb89bfe	0.00563383
128	0xbc9acfdf	-0.018897949
129	0x3d01734c	0.031604096
130	0x3c46f0a2	0.012142332
131	0x3da831f9	0.082126565
132	0xbd285b81	-0.04110289
133	0xbbd2af98	-0.006429624
134	0x3dbe60fd	0.09295843
135	0x3d400240	0.046877146
136	0x3ddeb3ce	0.10874139
137	0xbc9d1518	-0.019175097
138	0x3d23052b	0.03979985
139	0x3d9005c9	0.070323534
140	0xbd873cd0	-0.06603396
141	0xbd3b83f0	-0.045780122
142	0xbdae7569	-0.08518488
143	0x3c39cf3c	0.011340912
144	0x3dc4329f	0.09579968
145	0xbd13b689	-0.03606275
146	0x3d49f88e	0.049309306
147	0xbd401654	-0.046896294
148	0xbcc867a5	-0.024463484
149	0xbd89f811	-0.06736768
150	0x3de13959	0.10997266
151	0x3d9356f4	0.07194319
152	0x3dcaa24e	0.098942384
153	0x3d15fc19	0.036617372
154	0x3d2700bd	0.04077219
155	0xbdc5d078	-0.09658903
156	0x3dc3c6e3	0.09559419
157	0x3d6b2345	0.057406683
158	0xbd8c508a	-0.06851299
159	0xbd9b5c46	-0.07585959
160	0xbd9c13f2	-0.07620992
161	0x3e06f0b1	0.13177754
162	0x3d8674b5	0.06565229
163	0x3d6ca30a	0.057772674
164	0xbc05a261	-0.00815639
165	0xbd6dc291	-0.05804688
166	0x3dfca555	0.12336222
167	0xbd04e2e4	-0.032442942
168	0x3c516efd	0.012782809
169	0x3d4ea676	0.05045172
170	0x3d4c84e3	0.04993142
171	0xbd56cf09	-0.052443538
172	0xbdb9b185	-0.09067062
173	0x3da2de9d	0.07952616
174	0xbae1b572	-0.0017220213
175	0xbdc123ca	-0.09430654
176	0xbd177240	-0.03697419
177	0xbb1a50f5	-0.002354679
178	0xba4e429b	-0.00078682014
179	0xbdc8d99a	-0.09807129
180	0xbdf14d23	-0.11782291
181	0x3e156d63	0.14592509
182	0x3c24c3b1	0.010056422
183	0xbcabd2c1	-0.020974519
184	0x3cdb5fe4	0.026779123
185	0xbc8e6f71	-0.017387124
186	0xbcb4070b	-0.021976015
187	0xbd95f1e5	-0.07321528
188	0xbca39992	-0.019970689
189	0xbd51dca8	-0.051235825
190	0x3dc688e6	0.0969408
191	0xbd0bf96f	-0.034173425
192	0xbbcba542	-0.0062147686
193	0x3d077e82	0.03307963
194	0x3bcf6280	0.006328881
195	0x3c2e78d0	0.010648921
196	0xbd2e4d62	-0.042554267
197	0xbd69edaf	-0.05711144
198	0xbc3377ab	-0.010953824
199	0xbc9385fc	-0.018008225
200	0x3e0c1e16	0.13683352
201	0x3d9705a5	0.073741235
202	0x3e1c9f39	0.15295114
203	0x3db91e32	0.090389624
204	0xbd85bab8	-0.065297544
205	0x3d13278f	0.035926398
206	0xbdda385a	-0.106552795
207	0x3c900d5b	0.017584493
208	0x3e087d0c	0.13328952
209	0x3bb4dd2e	0.0055195307
210	0x3d918a70	0.07106483
211	0x3bdf4108	0.0068131723
212	0xbd9cd104	-0.07657054
213	0x3dc418cf	0.09575044
214	0xbdb10b35	-0.08644716
215	0x3d5df779	0.054191086
216	0x3d2f92f5	0.04286476
217	0x3c456f06	0.012050396
218	0xbc0fb8e8	-0.008772112
219	0x3d801d29	0.06255562
220	0x3d73d561	0.059529666
221	0x3aaea4c4	0.001332425
222	0xbd88c698	-0.06678504
223	0xbc8220f2	-0.01588485
224	0x3dd102fa	0.10205646
225	0x3d68f567	0.05687466
226	0x3dbf41bf	0.09338712
227	0x3da0c84c	0.078507036
228	0xbd2ddf38	-0.042449206
229	0xbca06d08	-0.01958324
230	0x3cfd58b9	0.030926095
231	0x3db008b7	0.08595412
232	0x3d1f2413	0.038852762
233	0xbd98edf4	-0.07467261
234	0xbd585326	-0.05281367
235	0xbdb659c6	-0.08903842
236	0xbd095344	-0.033526674
237	0x3b5f5d4b	0.0034082707
238	0xbd9a6d11	-0.07540334
239	0x3d87d83e	0.06633042
240	0xbd1dfc18	-0.038570493
241	0xbca41fb6	-0.020034652
242	0xbd8825ec	-0.06647858
243	0x3c876237	0.016526325
244	0x3da79975	0.081835665
245	0xbdaada85	-0.083424605
246	0xbd9a4f16	-0.07534616
247	0xbd963dc7	-0.07336002
248	0xbbd44c31	-0.0064788093
249	0xbccd0d9c	-0.025030904
250	0xbc43cf50	-0.011951283
251	0xbcb253b6	-0.021768432
252	0xbd664a5a	-0.05622325
253	0x3d461854	0.048363045
254	0xbdc33b52	-0.09532799
255	0xbc5e5f48	-0.0135725215

layers.3.bias f4 [84]
0	0xbd8b21a5	-0.067935266
1	0x3d311a4a	0.04323796
2	0x3d13b308	0.03605941
3	0xbd45d3c6	-0.048297666
4	0x3db6086b	0.08888324
5	0xbc4570ad	-0.01205079
6	0x3deec8a4	0.11659363
7	0xbc940a5f	-0.018071352
8	0xbc84ab27	-0.016194893
9	0x3df88a02	0.12135698
10	0xbdad7134	-0.084688574
11	0x3da4755c	0.08030197
12	0xbd9eb817	-0.07749956
13	0x3c4b3ec8	0.012405105
14	0xbd22dec8	-0.039763242
15	0x3d640c7a	0.05567596
16	0x3c80b263	0.015710061
17	0xbd35ee2c	-0.04441659
18	0x3c153e8b	0.00910915
19	0x3b0aeee7	0.0021199526
20	0xbda98697	-0.08277624
21	0xbd9e14e7	-0.077188306
22	0xbda90153	-0.08252206
23	0x3e048036	0.12939534
24	0x3d711750	0.058860123
25	0xbd57870f	-0.052619036
26	0xbb9528d5	-0.0045519867
27	0x3d4b54e7	0.049641516
28	0x3c8dda9b	0.017316153
29	0xbdbc8637	-0.09205287
30	0x3aa37702	0.001247138
31	0xbda45c8b	-0.08025464
32	0xbc97095c	-0.01843708
33	0x3db98592	0.0905868
34	0xbd3695bb	-0.044576388
35	0xbd58587e	-0.052818768
36	0xbdb1ad13	-0.086755894
37	0xbc585858	-0.013204657
38	0x3da78f2c	0.08181605
39	0x3c8a795a	0.016903568
40	0xbd2f297b	-0.04276417
41	0xbd29ccda	-0.041455127
42	0x3d91af5b	0.071135245
43	0x3d9472c9	0.07248456
44	0x3d456808	0.048194915
45	0x3dc92a19	0.098224826
46	0x3c376bf2	0.01119517
47	0xbd847ce1	-0.06469131
48	0x3be8f5fc	0.0071094017
49	0xbbd870f8	-0.006605264
50	0x3b6a8d16	0.003578966
51	0xbd9e2862	-0.07722546
52	0xbcf8a576	-0.030352335
53	0x3da9def5	0.08294479
54	0x3c06a40a	0.008217821
55	0xbd54714e	-0.05186587
56	0x3d8db02d	0.069183685
57	0x3d654835	0.055977065
58	0xbd224e2f	-0.039625343
59	0x3ca4ff7c	0.020141356
60	0xbc29361d	-0.010327843
61	0x3d698640	0.057012796
62	0xbd1ce05e	-0.03829991
63	0xbd52d8db	-0.05147634
64	0xbd2aa488	-0.041660815
65	0xbd48e731	-0.049048606
66	0xbd0a46a6	-0.03375878
67	0x3b6d1f98	0.0036182161
68	0x3dc9664a	0.09833963
69	0xbd3e9ce2	-0.046536334
70	0x3d4d3ee9	0.050108824
71	0x3d2c7d0b	0.042111438
72	0xbd2a8ed7	-0.04164013
73	0xbd90477a	-0.07044883
74	0x3d0e93be	0.034808867
75	0x3cb30e04	0.02185727
76	0xbda9e116	-0.08294885
77	0xbb808b68	-0.0039228685
78	0x3da15270	0.07877052
79	0x3de0ac0e	0.10970317
80	0xbd922c57	-0.071373634
81	0xbd208066	-0.03918495
82	0x3d14f6a6	0.036368035
83	0xbc8b9c0c	-0.017042182

layers.5.weight f4 [7, 84]
0	0x3b7458d0	0.0037284382
1	0x3bc7f02d	0.006101629
2	0xbe059485	-0.13044937
3	0xbd9a4c4b	-0.07534083
4	0x3ccb9d0b	0.024855157
5	0xbde3028a	-0.11084469
6	0x3d162bae	0.03666275
7	0xbdded45c	-0.10880348
8	0xbd8185d6	-0.06324355
9	0xbe146cec	-0.14494675
10	0x3d8a473d	0.06751869
11	0x3dc21795	0.09477154
12	0xbc08856a	-0.00833259
13	0xbe37c192	-0.17944935
14	0xbd9ac075	-0.075562395
15	0xbde39da7	-0.11114054
16	0xbe1e5dd2	-0.15465477
17	0xbd957367	-0.07297402
18	0x3c4942ef	0.012284025
19	0x3d8b84e9	0.0681246
20	0x3ca857c7	0.020549668
21	0xbdb637ff	-0.08897399
22	0xbdd706de	-0.10499357
23	0xbdc411e0	-0.09573722
24	0xbd22c077	-0.03973433
25	0x3e17c70c	0.14822024
26	0xbdbe4e47	-0.09292274
27	0xbe11fe11	-0.14257075
28	0x3dc98e38	0.09841579
29	0xbdd7263e	-0.10505341
30	0xbe100e93	-0.1406806
31	0x3c5438f4	0.012953032
32	0x3cc76394	0.024339475
33	0x3daabf5b	0.083372794
34	0xbdad693b	-0.08467337
35	0xbe0e1b82	-0.13877681
36	0xbdfb81af	-0.122805946
37	0xbc6837f9	-0.014173501
38	0x3d6526e3	0.05594529
39	0x3cb16cb2	0.021658275
40	0xbdf08e4c	-0.11745891
41	0x3ddf9e1a	0.10918827
42	0x3d90c6a1	0.070691355
43	0xbd303459	-0.043018673
44	0x3cdc70e8	0.026909307
45	0x3d290710	0.0412665
46	0x3d8b4c99	0.06801719
47	0xbcaf7bf4	-0.02142141
48	0x3bc5e4b3	0.006039226
49	0x3e028d0d	0.12749119
50	0xbe12fbf4	-0.14353925
51	0x3d3de751	0.04636318
52	0xbdce1820	-0.10063195
53	0x3d9976f2	0.0749339
54	0x3c7befd8	0.015377007
55	0x3dede2a9	0.116154976
56	0xbd762440	-0.060093164
57	0x3d56fa70	0.05248493
58	0x3c1ddd6a	0.009635309
59	0x3c96bab6	0.018399578
60	0xbcdfdc15	-0.027326623
61	0xbd1b1e2b	-0.037870567
62	0x3dbd64c3	0.092477344
63	0xbd982f49	-0.07430894
64	0x3c5a4d09	0.013324031
65	0xbd495808	-0.04915622
66	0xbe4f4292	-0.20240238
67	0x3d66ced3	0.056349587
68	0xbdad99f5	-0.084766306
69	0xbe286d50	-0.1644795
70	0xbe15a7cd	-0.14614792
71	0xbd1e9076	-0.038711987
72	0xbdb96aca	-0.090535715
73	0xbdd4f122	-0.10397555
74	0x3dd0e943	0.10200741
75	0x3d69823a	0.05700896
76	0xbdf003a9	-0.11719448
77	0xbd12d872	-0.03585095
78	0xbd591e92	-0.05300767
79	0xbe43a9d4	-0.19107753
80	0xbe043771	-0.12911774
81	0x3dae6365	0.08515052
82	0x3dde061a	0.108410075
83	0xbd622f7f	-0.055221077
84	0xbe393bc1	-0.180892
85	0x3e042134	0.12903291
86	0xbd034f49	-0.032058034
87	0xbd9161a4	-0.070987016
88	0xbd248bd9	-0.04017243
89	0x3e0705f3	0.13185863
90	0x3d0e2474	0.034702733
91	0x3dc1b33d	0.09458015
92	0x3b792d63	0.0038021437
93	0x3e0bd583	0.13655667
94	0xbdf3b9bd	-0.11900661
95	0x3d698be2	0.05701817
96	0x3d21a91e	0.039467923
97	0x3e081af0	0.13291526
98	0xbd35a7ff	-0.044349667
99	0x3d75e7d0	0.060035527
100	0x3de6c375	0.11267749
101	0xbd5d09a4	-0.053964272
102	0x3db2c4b2	0.08728923
103	0xbcde042e	-0.027101602
104	0xbca1a5a5	-0.019732306
105	0xbd905bde	-0.07048772
106	0x3cc7559e	0.024332818
107	0x3da87ced	0.08226953
108	0xbbe2f742	-0.006926448
109	0xbe3c5f96	-0.18395838
110	0x3d8e72c0	0.069554806
111	0xbcbd6df2	-0.023123715
112	0x3d22e4cc	0.03976898
113	0xbd34fcbd	-0.044186343
114	0x3dc55a64	0.09636381
115	0x3cc1348d	0.023584628
116	0x3ce68e8c	0.028144144
117	0x3d92769b	0.071515284
118	0xbd6245d4	-0.055242375
119	0xbe005566	-0.12532577
120	0x3d794e83	0.06086589
121	0xbbd06f3c	-0.0063609164
122	0xbe143bb0	-0.14475894
123	0xbdc793db	-0.09744998
124	0x3dfbca39	0.1229443
125	0xbe3ccb77	-0.1843699
126	0xbdd1d828	-0.10246307
127	0x3d0f4f1f	0.034987565
128	0x3ca4522f	0.02005872
129	0xbd7ca4ff	-0.06168079
130	0xbdbfdac3	-0.09367897
131	0x3d95a0cc	0.0730606
132	0xbe1f4993	-0.1555541
133	0x3c71c946	0.01475746
134	0xbe17bb23	-0.1481748
135	0xbc81b0d7	-0.015831394
136	0x3d829ac2	0.06377174
137	0xbd513099	-0.051071737
138	0xbd21dc85	-0.039516944
139	0xbdb1cd55	-0.08681742
140	0xbc6182f3	-0.013764131
141	0xbdfb81f0	-0.12280643
142	0xbc53ee42	-0.012935223
143	0xbe3c4f1d	-0.18389554
144	0xbd6d3835	-0.05791493
145	0xbda94cb7	-0.08266585
146	0xbc272e09	-0.010203847
147	0xbda47a1d	-0.08031104
148	0xbc911c23	-0.017713612
149	0x3c8caec1	0.017173173
150	0xbd2f477d	-0.042792786
151	0x3e09c7bd	0.134551
152	0x3e002b00	0.12516403
153	0xbd3da529	-0.046300087
154	0xbdad4faf	-0.08462464
155	0xbdc929b8	-0.0982241
156	0xbd809536	-0.0627846
157	0xbdb8df61	-0.09026981
158	0xbe28c35c	-0.16480774
159	0xbe13297d	-0.14371295
160	0xbce51612	-0.027964626
161	0xbd86c9e3	-0.065814756
162	0x3b519f49	0.003198581
163	0x3ddc6ca1	0.10762907
164	0xbdb90515	-0.090341724
165	0xbc212e90	-0.0098377615
166	0x3da38aed	0.07985482
167	0x3d950dcc	0.07278022
168	0xbd3afa8a	-0.04564909
169	0xbdd39a55	-0.10332171
170	0xbda1c657	-0.078991584
171	0xbc5be5d8	-0.013421498
172	0x3e152e6c	0.1456849
173	0x3e1829d2	0.14859703
174	0x3e2c80fa	0.16846076
175	0x3d9cc850	0.07655394
176	0xbdf807ca	-0.12110861
177	0xbd84816b	-0.06469997
178	0xbd237c2d	-0.039913345
179	0x3de9e60c	0.11420831
180	0xbc59696e	-0.013269765
181	0xbca521c2	-0.020157699
182	0x3c753142	0.014965357
183	0xbe032b22	-0.12809423
184	0xbe533ac6	-0.20627889
185	0xbd904f01	-0.07046319
186	0xbdada4b9	-0.08478684
187	0x3ddb88df	0.107194655
188	0x3d39c140	0.045350313
189	0xbdb82669	-0.08991701
190	0xbcb1ab7c	-0.021688215
191	0x3d901ff4	0.070373446
192	0x3e162853	0.1466382
193	0x3da1d237	0.079014234
194	0xbd663bed	-0.056209493
195	0xbca5108c	-0.020149492
196	0xbdc0969f	-0.09403729
197	0x3d33a9bc	0.043863043
198	0xbdb74933	-0.089495085
199	0xbdee7625	-0.11643628
200	0xbbcbfa70	-0.006224923
201	0xbc732150	-0.014839485
202	0xbd5d650a	-0.054051436
203	0xbd9abeb8	-0.07555908
204	0xbdd54a4e	-0.10414563
205	0xbdd2180c	-0.10258493
206	0x3dc80db2	0.09768237
207	0x3c343989	0.011000046
208	0xbaef63c5	-0.0018263987
209	0xbe3ba94e	-0.18326303
210	0x3df724e5	0.12067584
211	0x3d9be20e	0.07611476
212	0xbd99d6e5	-0.07511691
213	0xbe236065	-0.1595474
214	0xbe00759f	-0.12544869
215	0x3ce51ccf	0.027967839
216	0xbdd6dbe9	-0.10491163
217	0x3db9ad60	0.09066272
218	0xbe31326d	-0.17304392
219	0x3daa7ddc	0.08324787
220	0xbd60b02b	-0.054855507
221	0xbd84e090	-0.064881444
222	0x3e2df789	0.16988958
223	0x3d4e04ac	0.050297424
224	0x3ddf9b8e	0.109183416
225	0xbcff6850	-0.03117767
226	0x3e061a2c	0.13095921
227	0xbe44b1c6	-0.1920844
228	0x3dd7eb88	0.10542971
229	0xbd605599	-0.054769132
230	0x3ca08942	0.0195967
231	0xbdaf01a5	-0.085452355
232	0x3dc8233c	0.097723454
233	0x3d754cab	0.05988757
234	0xbe385751	-0.18002059
235	0x3dbbced5	0.091703095
236	0x3db17542	0.08664943
237	0xbe185f79	-0.1488017
238	0x3db2190c	0.086961836
239	0xbdee549d	-0.116372325
240	0xbd644869	-0.05573312
241	0xbd34777a	-0.044059254
242	0xbc25869c	-0.010102894
243	0xbd8a8026	-0.067627236
244	0xbd9df6b9	-0.07713074
245	0x3d409a73	0.047022294
246	0xbd84bc25	-0.06481198
247	0xbce2ea8d	-0.027699733
248	0x3d882bc4	0.06648973
249	0xbdb3cfd6	-0.08779876
250	0xbdee573e	-0.11637734
251	0xbcaffbc6	-0.02148236
252	0x3dadcdc9	0.08486516
253	0xbd94430a	-0.07239349
254	0x3de3ad63	0.11117055
255	0xbd24e9ad	-0.040261913

layers.5.bias f4 [7]
0	0xbd9d9d2a	-0.07695992
1	0x3d329522	0.043599255
2	0x3d86e798	0.06587142
3	0xbd52db05	-0.051478405
4	0x3d5a6b44	0.053324953
5	0x3d334899	0.043770406
6	0xbd99ff07	-0.07519346
